…
71368704/71719528 [============================>.] - ETA: 0s71720960/71719528 [==============================] - 4s 0us/step
[INFO] compiling model...
Model: "Classifica"
__________________________________________________________________________________________________
Layer (type)                    Output Shape         Param #     Connected to                     
==================================================================================================
input_1 (InputLayer)            [(None, 224, 224, 3) 0                                            
__________________________________________________________________________________________________
conv2d (Conv2D)                 (None, 112, 112, 48) 1296        input_1[0][0]                    
__________________________________________________________________________________________________
batch_normalization (BatchNorma (None, 112, 112, 48) 192         conv2d[0][0]                     
__________________________________________________________________________________________________
swish (Swish)                   (None, 112, 112, 48) 0           batch_normalization[0][0]        
__________________________________________________________________________________________________
depthwise_conv2d (DepthwiseConv (None, 112, 112, 48) 432         swish[0][0]                      
__________________________________________________________________________________________________
batch_normalization_1 (BatchNor (None, 112, 112, 48) 192         depthwise_conv2d[0][0]           
__________________________________________________________________________________________________
swish_1 (Swish)                 (None, 112, 112, 48) 0           batch_normalization_1[0][0]      
__________________________________________________________________________________________________
lambda (Lambda)                 (None, 1, 1, 48)     0           swish_1[0][0]                    
__________________________________________________________________________________________________
conv2d_1 (Conv2D)               (None, 1, 1, 12)     588         lambda[0][0]                     
__________________________________________________________________________________________________
swish_2 (Swish)                 (None, 1, 1, 12)     0           conv2d_1[0][0]                   
__________________________________________________________________________________________________
conv2d_2 (Conv2D)               (None, 1, 1, 48)     624         swish_2[0][0]                    
__________________________________________________________________________________________________
activation (Activation)         (None, 1, 1, 48)     0           conv2d_2[0][0]                   
__________________________________________________________________________________________________
multiply (Multiply)             (None, 112, 112, 48) 0           activation[0][0]                 
                                                                 swish_1[0][0]                    
__________________________________________________________________________________________________
conv2d_3 (Conv2D)               (None, 112, 112, 24) 1152        multiply[0][0]                   
__________________________________________________________________________________________________
batch_normalization_2 (BatchNor (None, 112, 112, 24) 96          conv2d_3[0][0]                   
__________________________________________________________________________________________________
depthwise_conv2d_1 (DepthwiseCo (None, 112, 112, 24) 216         batch_normalization_2[0][0]      
__________________________________________________________________________________________________
batch_normalization_3 (BatchNor (None, 112, 112, 24) 96          depthwise_conv2d_1[0][0]         
__________________________________________________________________________________________________
swish_3 (Swish)                 (None, 112, 112, 24) 0           batch_normalization_3[0][0]      
__________________________________________________________________________________________________
lambda_1 (Lambda)               (None, 1, 1, 24)     0           swish_3[0][0]                    
__________________________________________________________________________________________________
conv2d_4 (Conv2D)               (None, 1, 1, 6)      150         lambda_1[0][0]                   
__________________________________________________________________________________________________
swish_4 (Swish)                 (None, 1, 1, 6)      0           conv2d_4[0][0]                   
__________________________________________________________________________________________________
conv2d_5 (Conv2D)               (None, 1, 1, 24)     168         swish_4[0][0]                    
__________________________________________________________________________________________________
activation_1 (Activation)       (None, 1, 1, 24)     0           conv2d_5[0][0]                   
__________________________________________________________________________________________________
multiply_1 (Multiply)           (None, 112, 112, 24) 0           activation_1[0][0]               
                                                                 swish_3[0][0]                    
__________________________________________________________________________________________________
conv2d_6 (Conv2D)               (None, 112, 112, 24) 576         multiply_1[0][0]                 
__________________________________________________________________________________________________
batch_normalization_4 (BatchNor (None, 112, 112, 24) 96          conv2d_6[0][0]                   
__________________________________________________________________________________________________
add (Add)                       (None, 112, 112, 24) 0           batch_normalization_4[0][0]      
                                                                 batch_normalization_2[0][0]      
__________________________________________________________________________________________________
conv2d_7 (Conv2D)               (None, 112, 112, 144 3456        add[0][0]                        
__________________________________________________________________________________________________
batch_normalization_5 (BatchNor (None, 112, 112, 144 576         conv2d_7[0][0]                   
__________________________________________________________________________________________________
swish_5 (Swish)                 (None, 112, 112, 144 0           batch_normalization_5[0][0]      
__________________________________________________________________________________________________
depthwise_conv2d_2 (DepthwiseCo (None, 56, 56, 144)  1296        swish_5[0][0]                    
__________________________________________________________________________________________________
batch_normalization_6 (BatchNor (None, 56, 56, 144)  576         depthwise_conv2d_2[0][0]         
__________________________________________________________________________________________________
swish_6 (Swish)                 (None, 56, 56, 144)  0           batch_normalization_6[0][0]      
__________________________________________________________________________________________________
lambda_2 (Lambda)               (None, 1, 1, 144)    0           swish_6[0][0]                    
__________________________________________________________________________________________________
conv2d_8 (Conv2D)               (None, 1, 1, 6)      870         lambda_2[0][0]                   
__________________________________________________________________________________________________
swish_7 (Swish)                 (None, 1, 1, 6)      0           conv2d_8[0][0]                   
__________________________________________________________________________________________________
conv2d_9 (Conv2D)               (None, 1, 1, 144)    1008        swish_7[0][0]                    
__________________________________________________________________________________________________
activation_2 (Activation)       (None, 1, 1, 144)    0           conv2d_9[0][0]                   
__________________________________________________________________________________________________
multiply_2 (Multiply)           (None, 56, 56, 144)  0           activation_2[0][0]               
                                                                 swish_6[0][0]                    
__________________________________________________________________________________________________
conv2d_10 (Conv2D)              (None, 56, 56, 32)   4608        multiply_2[0][0]                 
__________________________________________________________________________________________________
batch_normalization_7 (BatchNor (None, 56, 56, 32)   128         conv2d_10[0][0]                  
__________________________________________________________________________________________________
conv2d_11 (Conv2D)              (None, 56, 56, 192)  6144        batch_normalization_7[0][0]      
__________________________________________________________________________________________________
batch_normalization_8 (BatchNor (None, 56, 56, 192)  768         conv2d_11[0][0]                  
__________________________________________________________________________________________________
swish_8 (Swish)                 (None, 56, 56, 192)  0           batch_normalization_8[0][0]      
__________________________________________________________________________________________________
depthwise_conv2d_3 (DepthwiseCo (None, 56, 56, 192)  1728        swish_8[0][0]                    
__________________________________________________________________________________________________
batch_normalization_9 (BatchNor (None, 56, 56, 192)  768         depthwise_conv2d_3[0][0]         
__________________________________________________________________________________________________
swish_9 (Swish)                 (None, 56, 56, 192)  0           batch_normalization_9[0][0]      
__________________________________________________________________________________________________
lambda_3 (Lambda)               (None, 1, 1, 192)    0           swish_9[0][0]                    
__________________________________________________________________________________________________
conv2d_12 (Conv2D)              (None, 1, 1, 8)      1544        lambda_3[0][0]                   
__________________________________________________________________________________________________
swish_10 (Swish)                (None, 1, 1, 8)      0           conv2d_12[0][0]                  
__________________________________________________________________________________________________
conv2d_13 (Conv2D)              (None, 1, 1, 192)    1728        swish_10[0][0]                   
__________________________________________________________________________________________________
activation_3 (Activation)       (None, 1, 1, 192)    0           conv2d_13[0][0]                  
__________________________________________________________________________________________________
multiply_3 (Multiply)           (None, 56, 56, 192)  0           activation_3[0][0]               
                                                                 swish_9[0][0]                    
__________________________________________________________________________________________________
conv2d_14 (Conv2D)              (None, 56, 56, 32)   6144        multiply_3[0][0]                 
__________________________________________________________________________________________________
batch_normalization_10 (BatchNo (None, 56, 56, 32)   128         conv2d_14[0][0]                  
__________________________________________________________________________________________________
add_1 (Add)                     (None, 56, 56, 32)   0           batch_normalization_10[0][0]     
                                                                 batch_normalization_7[0][0]      
__________________________________________________________________________________________________
conv2d_15 (Conv2D)              (None, 56, 56, 192)  6144        add_1[0][0]                      
__________________________________________________________________________________________________
batch_normalization_11 (BatchNo (None, 56, 56, 192)  768         conv2d_15[0][0]                  
__________________________________________________________________________________________________
swish_11 (Swish)                (None, 56, 56, 192)  0           batch_normalization_11[0][0]     
__________________________________________________________________________________________________
depthwise_conv2d_4 (DepthwiseCo (None, 56, 56, 192)  1728        swish_11[0][0]                   
__________________________________________________________________________________________________
batch_normalization_12 (BatchNo (None, 56, 56, 192)  768         depthwise_conv2d_4[0][0]         
__________________________________________________________________________________________________
swish_12 (Swish)                (None, 56, 56, 192)  0           batch_normalization_12[0][0]     
__________________________________________________________________________________________________
lambda_4 (Lambda)               (None, 1, 1, 192)    0           swish_12[0][0]                   
__________________________________________________________________________________________________
conv2d_16 (Conv2D)              (None, 1, 1, 8)      1544        lambda_4[0][0]                   
__________________________________________________________________________________________________
swish_13 (Swish)                (None, 1, 1, 8)      0           conv2d_16[0][0]                  
__________________________________________________________________________________________________
conv2d_17 (Conv2D)              (None, 1, 1, 192)    1728        swish_13[0][0]                   
__________________________________________________________________________________________________
activation_4 (Activation)       (None, 1, 1, 192)    0           conv2d_17[0][0]                  
__________________________________________________________________________________________________
multiply_4 (Multiply)           (None, 56, 56, 192)  0           activation_4[0][0]               
                                                                 swish_12[0][0]                   
__________________________________________________________________________________________________
conv2d_18 (Conv2D)              (None, 56, 56, 32)   6144        multiply_4[0][0]                 
__________________________________________________________________________________________________
batch_normalization_13 (BatchNo (None, 56, 56, 32)   128         conv2d_18[0][0]                  
__________________________________________________________________________________________________
add_2 (Add)                     (None, 56, 56, 32)   0           batch_normalization_13[0][0]     
                                                                 add_1[0][0]                      
__________________________________________________________________________________________________
conv2d_19 (Conv2D)              (None, 56, 56, 192)  6144        add_2[0][0]                      
__________________________________________________________________________________________________
batch_normalization_14 (BatchNo (None, 56, 56, 192)  768         conv2d_19[0][0]                  
__________________________________________________________________________________________________
swish_14 (Swish)                (None, 56, 56, 192)  0           batch_normalization_14[0][0]     
__________________________________________________________________________________________________
depthwise_conv2d_5 (DepthwiseCo (None, 56, 56, 192)  1728        swish_14[0][0]                   
__________________________________________________________________________________________________
batch_normalization_15 (BatchNo (None, 56, 56, 192)  768         depthwise_conv2d_5[0][0]         
__________________________________________________________________________________________________
swish_15 (Swish)                (None, 56, 56, 192)  0           batch_normalization_15[0][0]     
__________________________________________________________________________________________________
lambda_5 (Lambda)               (None, 1, 1, 192)    0           swish_15[0][0]                   
__________________________________________________________________________________________________
conv2d_20 (Conv2D)              (None, 1, 1, 8)      1544        lambda_5[0][0]                   
__________________________________________________________________________________________________
swish_16 (Swish)                (None, 1, 1, 8)      0           conv2d_20[0][0]                  
__________________________________________________________________________________________________
conv2d_21 (Conv2D)              (None, 1, 1, 192)    1728        swish_16[0][0]                   
__________________________________________________________________________________________________
activation_5 (Activation)       (None, 1, 1, 192)    0           conv2d_21[0][0]                  
__________________________________________________________________________________________________
multiply_5 (Multiply)           (None, 56, 56, 192)  0           activation_5[0][0]               
                                                                 swish_15[0][0]                   
__________________________________________________________________________________________________
conv2d_22 (Conv2D)              (None, 56, 56, 32)   6144        multiply_5[0][0]                 
__________________________________________________________________________________________________
batch_normalization_16 (BatchNo (None, 56, 56, 32)   128         conv2d_22[0][0]                  
__________________________________________________________________________________________________
add_3 (Add)                     (None, 56, 56, 32)   0           batch_normalization_16[0][0]     
                                                                 add_2[0][0]                      
__________________________________________________________________________________________________
conv2d_23 (Conv2D)              (None, 56, 56, 192)  6144        add_3[0][0]                      
__________________________________________________________________________________________________
batch_normalization_17 (BatchNo (None, 56, 56, 192)  768         conv2d_23[0][0]                  
__________________________________________________________________________________________________
swish_17 (Swish)                (None, 56, 56, 192)  0           batch_normalization_17[0][0]     
__________________________________________________________________________________________________
depthwise_conv2d_6 (DepthwiseCo (None, 28, 28, 192)  4800        swish_17[0][0]                   
__________________________________________________________________________________________________
batch_normalization_18 (BatchNo (None, 28, 28, 192)  768         depthwise_conv2d_6[0][0]         
__________________________________________________________________________________________________
swish_18 (Swish)                (None, 28, 28, 192)  0           batch_normalization_18[0][0]     
__________________________________________________________________________________________________
lambda_6 (Lambda)               (None, 1, 1, 192)    0           swish_18[0][0]                   
__________________________________________________________________________________________________
conv2d_24 (Conv2D)              (None, 1, 1, 8)      1544        lambda_6[0][0]                   
__________________________________________________________________________________________________
swish_19 (Swish)                (None, 1, 1, 8)      0           conv2d_24[0][0]                  
__________________________________________________________________________________________________
conv2d_25 (Conv2D)              (None, 1, 1, 192)    1728        swish_19[0][0]                   
__________________________________________________________________________________________________
activation_6 (Activation)       (None, 1, 1, 192)    0           conv2d_25[0][0]                  
__________________________________________________________________________________________________
multiply_6 (Multiply)           (None, 28, 28, 192)  0           activation_6[0][0]               
                                                                 swish_18[0][0]                   
__________________________________________________________________________________________________
conv2d_26 (Conv2D)              (None, 28, 28, 56)   10752       multiply_6[0][0]                 
__________________________________________________________________________________________________
batch_normalization_19 (BatchNo (None, 28, 28, 56)   224         conv2d_26[0][0]                  
__________________________________________________________________________________________________
conv2d_27 (Conv2D)              (None, 28, 28, 336)  18816       batch_normalization_19[0][0]     
__________________________________________________________________________________________________
batch_normalization_20 (BatchNo (None, 28, 28, 336)  1344        conv2d_27[0][0]                  
__________________________________________________________________________________________________
swish_20 (Swish)                (None, 28, 28, 336)  0           batch_normalization_20[0][0]     
__________________________________________________________________________________________________
depthwise_conv2d_7 (DepthwiseCo (None, 28, 28, 336)  8400        swish_20[0][0]                   
__________________________________________________________________________________________________
batch_normalization_21 (BatchNo (None, 28, 28, 336)  1344        depthwise_conv2d_7[0][0]         
__________________________________________________________________________________________________
swish_21 (Swish)                (None, 28, 28, 336)  0           batch_normalization_21[0][0]     
__________________________________________________________________________________________________
lambda_7 (Lambda)               (None, 1, 1, 336)    0           swish_21[0][0]                   
__________________________________________________________________________________________________
conv2d_28 (Conv2D)              (None, 1, 1, 14)     4718        lambda_7[0][0]                   
__________________________________________________________________________________________________
swish_22 (Swish)                (None, 1, 1, 14)     0           conv2d_28[0][0]                  
__________________________________________________________________________________________________
conv2d_29 (Conv2D)              (None, 1, 1, 336)    5040        swish_22[0][0]                   
__________________________________________________________________________________________________
activation_7 (Activation)       (None, 1, 1, 336)    0           conv2d_29[0][0]                  
__________________________________________________________________________________________________
multiply_7 (Multiply)           (None, 28, 28, 336)  0           activation_7[0][0]               
                                                                 swish_21[0][0]                   
__________________________________________________________________________________________________
conv2d_30 (Conv2D)              (None, 28, 28, 56)   18816       multiply_7[0][0]                 
__________________________________________________________________________________________________
batch_normalization_22 (BatchNo (None, 28, 28, 56)   224         conv2d_30[0][0]                  
__________________________________________________________________________________________________
add_4 (Add)                     (None, 28, 28, 56)   0           batch_normalization_22[0][0]     
                                                                 batch_normalization_19[0][0]     
__________________________________________________________________________________________________
conv2d_31 (Conv2D)              (None, 28, 28, 336)  18816       add_4[0][0]                      
__________________________________________________________________________________________________
batch_normalization_23 (BatchNo (None, 28, 28, 336)  1344        conv2d_31[0][0]                  
__________________________________________________________________________________________________
swish_23 (Swish)                (None, 28, 28, 336)  0           batch_normalization_23[0][0]     
__________________________________________________________________________________________________
depthwise_conv2d_8 (DepthwiseCo (None, 28, 28, 336)  8400        swish_23[0][0]                   
__________________________________________________________________________________________________
batch_normalization_24 (BatchNo (None, 28, 28, 336)  1344        depthwise_conv2d_8[0][0]         
__________________________________________________________________________________________________
swish_24 (Swish)                (None, 28, 28, 336)  0           batch_normalization_24[0][0]     
__________________________________________________________________________________________________
lambda_8 (Lambda)               (None, 1, 1, 336)    0           swish_24[0][0]                   
__________________________________________________________________________________________________
conv2d_32 (Conv2D)              (None, 1, 1, 14)     4718        lambda_8[0][0]                   
__________________________________________________________________________________________________
swish_25 (Swish)                (None, 1, 1, 14)     0           conv2d_32[0][0]                  
__________________________________________________________________________________________________
conv2d_33 (Conv2D)              (None, 1, 1, 336)    5040        swish_25[0][0]                   
__________________________________________________________________________________________________
activation_8 (Activation)       (None, 1, 1, 336)    0           conv2d_33[0][0]                  
__________________________________________________________________________________________________
multiply_8 (Multiply)           (None, 28, 28, 336)  0           activation_8[0][0]               
                                                                 swish_24[0][0]                   
__________________________________________________________________________________________________
conv2d_34 (Conv2D)              (None, 28, 28, 56)   18816       multiply_8[0][0]                 
__________________________________________________________________________________________________
batch_normalization_25 (BatchNo (None, 28, 28, 56)   224         conv2d_34[0][0]                  
__________________________________________________________________________________________________
add_5 (Add)                     (None, 28, 28, 56)   0           batch_normalization_25[0][0]     
                                                                 add_4[0][0]                      
__________________________________________________________________________________________________
conv2d_35 (Conv2D)              (None, 28, 28, 336)  18816       add_5[0][0]                      
__________________________________________________________________________________________________
batch_normalization_26 (BatchNo (None, 28, 28, 336)  1344        conv2d_35[0][0]                  
__________________________________________________________________________________________________
swish_26 (Swish)                (None, 28, 28, 336)  0           batch_normalization_26[0][0]     
__________________________________________________________________________________________________
depthwise_conv2d_9 (DepthwiseCo (None, 28, 28, 336)  8400        swish_26[0][0]                   
__________________________________________________________________________________________________
batch_normalization_27 (BatchNo (None, 28, 28, 336)  1344        depthwise_conv2d_9[0][0]         
__________________________________________________________________________________________________
swish_27 (Swish)                (None, 28, 28, 336)  0           batch_normalization_27[0][0]     
__________________________________________________________________________________________________
lambda_9 (Lambda)               (None, 1, 1, 336)    0           swish_27[0][0]                   
__________________________________________________________________________________________________
conv2d_36 (Conv2D)              (None, 1, 1, 14)     4718        lambda_9[0][0]                   
__________________________________________________________________________________________________
swish_28 (Swish)                (None, 1, 1, 14)     0           conv2d_36[0][0]                  
__________________________________________________________________________________________________
conv2d_37 (Conv2D)              (None, 1, 1, 336)    5040        swish_28[0][0]                   
__________________________________________________________________________________________________
activation_9 (Activation)       (None, 1, 1, 336)    0           conv2d_37[0][0]                  
__________________________________________________________________________________________________
multiply_9 (Multiply)           (None, 28, 28, 336)  0           activation_9[0][0]               
                                                                 swish_27[0][0]                   
__________________________________________________________________________________________________
conv2d_38 (Conv2D)              (None, 28, 28, 56)   18816       multiply_9[0][0]                 
__________________________________________________________________________________________________
batch_normalization_28 (BatchNo (None, 28, 28, 56)   224         conv2d_38[0][0]                  
__________________________________________________________________________________________________
add_6 (Add)                     (None, 28, 28, 56)   0           batch_normalization_28[0][0]     
                                                                 add_5[0][0]                      
__________________________________________________________________________________________________
conv2d_39 (Conv2D)              (None, 28, 28, 336)  18816       add_6[0][0]                      
__________________________________________________________________________________________________
batch_normalization_29 (BatchNo (None, 28, 28, 336)  1344        conv2d_39[0][0]                  
__________________________________________________________________________________________________
swish_29 (Swish)                (None, 28, 28, 336)  0           batch_normalization_29[0][0]     
__________________________________________________________________________________________________
depthwise_conv2d_10 (DepthwiseC (None, 14, 14, 336)  3024        swish_29[0][0]                   
__________________________________________________________________________________________________
batch_normalization_30 (BatchNo (None, 14, 14, 336)  1344        depthwise_conv2d_10[0][0]        
__________________________________________________________________________________________________
swish_30 (Swish)                (None, 14, 14, 336)  0           batch_normalization_30[0][0]     
__________________________________________________________________________________________________
lambda_10 (Lambda)              (None, 1, 1, 336)    0           swish_30[0][0]                   
__________________________________________________________________________________________________
conv2d_40 (Conv2D)              (None, 1, 1, 14)     4718        lambda_10[0][0]                  
__________________________________________________________________________________________________
swish_31 (Swish)                (None, 1, 1, 14)     0           conv2d_40[0][0]                  
__________________________________________________________________________________________________
conv2d_41 (Conv2D)              (None, 1, 1, 336)    5040        swish_31[0][0]                   
__________________________________________________________________________________________________
activation_10 (Activation)      (None, 1, 1, 336)    0           conv2d_41[0][0]                  
__________________________________________________________________________________________________
multiply_10 (Multiply)          (None, 14, 14, 336)  0           activation_10[0][0]              
                                                                 swish_30[0][0]                   
__________________________________________________________________________________________________
conv2d_42 (Conv2D)              (None, 14, 14, 112)  37632       multiply_10[0][0]                
__________________________________________________________________________________________________
batch_normalization_31 (BatchNo (None, 14, 14, 112)  448         conv2d_42[0][0]                  
__________________________________________________________________________________________________
conv2d_43 (Conv2D)              (None, 14, 14, 672)  75264       batch_normalization_31[0][0]     
__________________________________________________________________________________________________
batch_normalization_32 (BatchNo (None, 14, 14, 672)  2688        conv2d_43[0][0]                  
__________________________________________________________________________________________________
swish_32 (Swish)                (None, 14, 14, 672)  0           batch_normalization_32[0][0]     
__________________________________________________________________________________________________
depthwise_conv2d_11 (DepthwiseC (None, 14, 14, 672)  6048        swish_32[0][0]                   
__________________________________________________________________________________________________
batch_normalization_33 (BatchNo (None, 14, 14, 672)  2688        depthwise_conv2d_11[0][0]        
__________________________________________________________________________________________________
swish_33 (Swish)                (None, 14, 14, 672)  0           batch_normalization_33[0][0]     
__________________________________________________________________________________________________
lambda_11 (Lambda)              (None, 1, 1, 672)    0           swish_33[0][0]                   
__________________________________________________________________________________________________
conv2d_44 (Conv2D)              (None, 1, 1, 28)     18844       lambda_11[0][0]                  
__________________________________________________________________________________________________
swish_34 (Swish)                (None, 1, 1, 28)     0           conv2d_44[0][0]                  
__________________________________________________________________________________________________
conv2d_45 (Conv2D)              (None, 1, 1, 672)    19488       swish_34[0][0]                   
__________________________________________________________________________________________________
activation_11 (Activation)      (None, 1, 1, 672)    0           conv2d_45[0][0]                  
__________________________________________________________________________________________________
multiply_11 (Multiply)          (None, 14, 14, 672)  0           activation_11[0][0]              
                                                                 swish_33[0][0]                   
__________________________________________________________________________________________________
conv2d_46 (Conv2D)              (None, 14, 14, 112)  75264       multiply_11[0][0]                
__________________________________________________________________________________________________
batch_normalization_34 (BatchNo (None, 14, 14, 112)  448         conv2d_46[0][0]                  
__________________________________________________________________________________________________
add_7 (Add)                     (None, 14, 14, 112)  0           batch_normalization_34[0][0]     
                                                                 batch_normalization_31[0][0]     
__________________________________________________________________________________________________
conv2d_47 (Conv2D)              (None, 14, 14, 672)  75264       add_7[0][0]                      
__________________________________________________________________________________________________
batch_normalization_35 (BatchNo (None, 14, 14, 672)  2688        conv2d_47[0][0]                  
__________________________________________________________________________________________________
swish_35 (Swish)                (None, 14, 14, 672)  0           batch_normalization_35[0][0]     
__________________________________________________________________________________________________
depthwise_conv2d_12 (DepthwiseC (None, 14, 14, 672)  6048        swish_35[0][0]                   
__________________________________________________________________________________________________
batch_normalization_36 (BatchNo (None, 14, 14, 672)  2688        depthwise_conv2d_12[0][0]        
__________________________________________________________________________________________________
swish_36 (Swish)                (None, 14, 14, 672)  0           batch_normalization_36[0][0]     
__________________________________________________________________________________________________
lambda_12 (Lambda)              (None, 1, 1, 672)    0           swish_36[0][0]                   
__________________________________________________________________________________________________
conv2d_48 (Conv2D)              (None, 1, 1, 28)     18844       lambda_12[0][0]                  
__________________________________________________________________________________________________
swish_37 (Swish)                (None, 1, 1, 28)     0           conv2d_48[0][0]                  
__________________________________________________________________________________________________
conv2d_49 (Conv2D)              (None, 1, 1, 672)    19488       swish_37[0][0]                   
__________________________________________________________________________________________________
activation_12 (Activation)      (None, 1, 1, 672)    0           conv2d_49[0][0]                  
__________________________________________________________________________________________________
multiply_12 (Multiply)          (None, 14, 14, 672)  0           activation_12[0][0]              
                                                                 swish_36[0][0]                   
__________________________________________________________________________________________________
conv2d_50 (Conv2D)              (None, 14, 14, 112)  75264       multiply_12[0][0]                
__________________________________________________________________________________________________
batch_normalization_37 (BatchNo (None, 14, 14, 112)  448         conv2d_50[0][0]                  
__________________________________________________________________________________________________
add_8 (Add)                     (None, 14, 14, 112)  0           batch_normalization_37[0][0]     
                                                                 add_7[0][0]                      
__________________________________________________________________________________________________
conv2d_51 (Conv2D)              (None, 14, 14, 672)  75264       add_8[0][0]                      
__________________________________________________________________________________________________
batch_normalization_38 (BatchNo (None, 14, 14, 672)  2688        conv2d_51[0][0]                  
__________________________________________________________________________________________________
swish_38 (Swish)                (None, 14, 14, 672)  0           batch_normalization_38[0][0]     
__________________________________________________________________________________________________
depthwise_conv2d_13 (DepthwiseC (None, 14, 14, 672)  6048        swish_38[0][0]                   
__________________________________________________________________________________________________
batch_normalization_39 (BatchNo (None, 14, 14, 672)  2688        depthwise_conv2d_13[0][0]        
__________________________________________________________________________________________________
swish_39 (Swish)                (None, 14, 14, 672)  0           batch_normalization_39[0][0]     
__________________________________________________________________________________________________
lambda_13 (Lambda)              (None, 1, 1, 672)    0           swish_39[0][0]                   
__________________________________________________________________________________________________
conv2d_52 (Conv2D)              (None, 1, 1, 28)     18844       lambda_13[0][0]                  
__________________________________________________________________________________________________
swish_40 (Swish)                (None, 1, 1, 28)     0           conv2d_52[0][0]                  
__________________________________________________________________________________________________
conv2d_53 (Conv2D)              (None, 1, 1, 672)    19488       swish_40[0][0]                   
__________________________________________________________________________________________________
activation_13 (Activation)      (None, 1, 1, 672)    0           conv2d_53[0][0]                  
__________________________________________________________________________________________________
multiply_13 (Multiply)          (None, 14, 14, 672)  0           activation_13[0][0]              
                                                                 swish_39[0][0]                   
__________________________________________________________________________________________________
conv2d_54 (Conv2D)              (None, 14, 14, 112)  75264       multiply_13[0][0]                
__________________________________________________________________________________________________
batch_normalization_40 (BatchNo (None, 14, 14, 112)  448         conv2d_54[0][0]                  
__________________________________________________________________________________________________
add_9 (Add)                     (None, 14, 14, 112)  0           batch_normalization_40[0][0]     
                                                                 add_8[0][0]                      
__________________________________________________________________________________________________
conv2d_55 (Conv2D)              (None, 14, 14, 672)  75264       add_9[0][0]                      
__________________________________________________________________________________________________
batch_normalization_41 (BatchNo (None, 14, 14, 672)  2688        conv2d_55[0][0]                  
__________________________________________________________________________________________________
swish_41 (Swish)                (None, 14, 14, 672)  0           batch_normalization_41[0][0]     
__________________________________________________________________________________________________
depthwise_conv2d_14 (DepthwiseC (None, 14, 14, 672)  6048        swish_41[0][0]                   
__________________________________________________________________________________________________
batch_normalization_42 (BatchNo (None, 14, 14, 672)  2688        depthwise_conv2d_14[0][0]        
__________________________________________________________________________________________________
swish_42 (Swish)                (None, 14, 14, 672)  0           batch_normalization_42[0][0]     
__________________________________________________________________________________________________
lambda_14 (Lambda)              (None, 1, 1, 672)    0           swish_42[0][0]                   
__________________________________________________________________________________________________
conv2d_56 (Conv2D)              (None, 1, 1, 28)     18844       lambda_14[0][0]                  
__________________________________________________________________________________________________
swish_43 (Swish)                (None, 1, 1, 28)     0           conv2d_56[0][0]                  
__________________________________________________________________________________________________
conv2d_57 (Conv2D)              (None, 1, 1, 672)    19488       swish_43[0][0]                   
__________________________________________________________________________________________________
activation_14 (Activation)      (None, 1, 1, 672)    0           conv2d_57[0][0]                  
__________________________________________________________________________________________________
multiply_14 (Multiply)          (None, 14, 14, 672)  0           activation_14[0][0]              
                                                                 swish_42[0][0]                   
__________________________________________________________________________________________________
conv2d_58 (Conv2D)              (None, 14, 14, 112)  75264       multiply_14[0][0]                
__________________________________________________________________________________________________
batch_normalization_43 (BatchNo (None, 14, 14, 112)  448         conv2d_58[0][0]                  
__________________________________________________________________________________________________
add_10 (Add)                    (None, 14, 14, 112)  0           batch_normalization_43[0][0]     
                                                                 add_9[0][0]                      
__________________________________________________________________________________________________
conv2d_59 (Conv2D)              (None, 14, 14, 672)  75264       add_10[0][0]                     
__________________________________________________________________________________________________
batch_normalization_44 (BatchNo (None, 14, 14, 672)  2688        conv2d_59[0][0]                  
__________________________________________________________________________________________________
swish_44 (Swish)                (None, 14, 14, 672)  0           batch_normalization_44[0][0]     
__________________________________________________________________________________________________
depthwise_conv2d_15 (DepthwiseC (None, 14, 14, 672)  6048        swish_44[0][0]                   
__________________________________________________________________________________________________
batch_normalization_45 (BatchNo (None, 14, 14, 672)  2688        depthwise_conv2d_15[0][0]        
__________________________________________________________________________________________________
swish_45 (Swish)                (None, 14, 14, 672)  0           batch_normalization_45[0][0]     
__________________________________________________________________________________________________
lambda_15 (Lambda)              (None, 1, 1, 672)    0           swish_45[0][0]                   
__________________________________________________________________________________________________
conv2d_60 (Conv2D)              (None, 1, 1, 28)     18844       lambda_15[0][0]                  
__________________________________________________________________________________________________
swish_46 (Swish)                (None, 1, 1, 28)     0           conv2d_60[0][0]                  
__________________________________________________________________________________________________
conv2d_61 (Conv2D)              (None, 1, 1, 672)    19488       swish_46[0][0]                   
__________________________________________________________________________________________________
activation_15 (Activation)      (None, 1, 1, 672)    0           conv2d_61[0][0]                  
__________________________________________________________________________________________________
multiply_15 (Multiply)          (None, 14, 14, 672)  0           activation_15[0][0]              
                                                                 swish_45[0][0]                   
__________________________________________________________________________________________________
conv2d_62 (Conv2D)              (None, 14, 14, 112)  75264       multiply_15[0][0]                
__________________________________________________________________________________________________
batch_normalization_46 (BatchNo (None, 14, 14, 112)  448         conv2d_62[0][0]                  
__________________________________________________________________________________________________
add_11 (Add)                    (None, 14, 14, 112)  0           batch_normalization_46[0][0]     
                                                                 add_10[0][0]                     
__________________________________________________________________________________________________
conv2d_63 (Conv2D)              (None, 14, 14, 672)  75264       add_11[0][0]                     
__________________________________________________________________________________________________
batch_normalization_47 (BatchNo (None, 14, 14, 672)  2688        conv2d_63[0][0]                  
__________________________________________________________________________________________________
swish_47 (Swish)                (None, 14, 14, 672)  0           batch_normalization_47[0][0]     
__________________________________________________________________________________________________
depthwise_conv2d_16 (DepthwiseC (None, 14, 14, 672)  16800       swish_47[0][0]                   
__________________________________________________________________________________________________
batch_normalization_48 (BatchNo (None, 14, 14, 672)  2688        depthwise_conv2d_16[0][0]        
__________________________________________________________________________________________________
swish_48 (Swish)                (None, 14, 14, 672)  0           batch_normalization_48[0][0]     
__________________________________________________________________________________________________
lambda_16 (Lambda)              (None, 1, 1, 672)    0           swish_48[0][0]                   
__________________________________________________________________________________________________
conv2d_64 (Conv2D)              (None, 1, 1, 28)     18844       lambda_16[0][0]                  
__________________________________________________________________________________________________
swish_49 (Swish)                (None, 1, 1, 28)     0           conv2d_64[0][0]                  
__________________________________________________________________________________________________
conv2d_65 (Conv2D)              (None, 1, 1, 672)    19488       swish_49[0][0]                   
__________________________________________________________________________________________________
activation_16 (Activation)      (None, 1, 1, 672)    0           conv2d_65[0][0]                  
__________________________________________________________________________________________________
multiply_16 (Multiply)          (None, 14, 14, 672)  0           activation_16[0][0]              
                                                                 swish_48[0][0]                   
__________________________________________________________________________________________________
conv2d_66 (Conv2D)              (None, 14, 14, 160)  107520      multiply_16[0][0]                
__________________________________________________________________________________________________
batch_normalization_49 (BatchNo (None, 14, 14, 160)  640         conv2d_66[0][0]                  
__________________________________________________________________________________________________
conv2d_67 (Conv2D)              (None, 14, 14, 960)  153600      batch_normalization_49[0][0]     
__________________________________________________________________________________________________
batch_normalization_50 (BatchNo (None, 14, 14, 960)  3840        conv2d_67[0][0]                  
__________________________________________________________________________________________________
swish_50 (Swish)                (None, 14, 14, 960)  0           batch_normalization_50[0][0]     
__________________________________________________________________________________________________
depthwise_conv2d_17 (DepthwiseC (None, 14, 14, 960)  24000       swish_50[0][0]                   
__________________________________________________________________________________________________
batch_normalization_51 (BatchNo (None, 14, 14, 960)  3840        depthwise_conv2d_17[0][0]        
__________________________________________________________________________________________________
swish_51 (Swish)                (None, 14, 14, 960)  0           batch_normalization_51[0][0]     
__________________________________________________________________________________________________
lambda_17 (Lambda)              (None, 1, 1, 960)    0           swish_51[0][0]                   
__________________________________________________________________________________________________
conv2d_68 (Conv2D)              (None, 1, 1, 40)     38440       lambda_17[0][0]                  
__________________________________________________________________________________________________
swish_52 (Swish)                (None, 1, 1, 40)     0           conv2d_68[0][0]                  
__________________________________________________________________________________________________
conv2d_69 (Conv2D)              (None, 1, 1, 960)    39360       swish_52[0][0]                   
__________________________________________________________________________________________________
activation_17 (Activation)      (None, 1, 1, 960)    0           conv2d_69[0][0]                  
__________________________________________________________________________________________________
multiply_17 (Multiply)          (None, 14, 14, 960)  0           activation_17[0][0]              
                                                                 swish_51[0][0]                   
__________________________________________________________________________________________________
conv2d_70 (Conv2D)              (None, 14, 14, 160)  153600      multiply_17[0][0]                
__________________________________________________________________________________________________
batch_normalization_52 (BatchNo (None, 14, 14, 160)  640         conv2d_70[0][0]                  
__________________________________________________________________________________________________
add_12 (Add)                    (None, 14, 14, 160)  0           batch_normalization_52[0][0]     
                                                                 batch_normalization_49[0][0]     
__________________________________________________________________________________________________
conv2d_71 (Conv2D)              (None, 14, 14, 960)  153600      add_12[0][0]                     
__________________________________________________________________________________________________
batch_normalization_53 (BatchNo (None, 14, 14, 960)  3840        conv2d_71[0][0]                  
__________________________________________________________________________________________________
swish_53 (Swish)                (None, 14, 14, 960)  0           batch_normalization_53[0][0]     
__________________________________________________________________________________________________
depthwise_conv2d_18 (DepthwiseC (None, 14, 14, 960)  24000       swish_53[0][0]                   
__________________________________________________________________________________________________
batch_normalization_54 (BatchNo (None, 14, 14, 960)  3840        depthwise_conv2d_18[0][0]        
__________________________________________________________________________________________________
swish_54 (Swish)                (None, 14, 14, 960)  0           batch_normalization_54[0][0]     
__________________________________________________________________________________________________
lambda_18 (Lambda)              (None, 1, 1, 960)    0           swish_54[0][0]                   
__________________________________________________________________________________________________
conv2d_72 (Conv2D)              (None, 1, 1, 40)     38440       lambda_18[0][0]                  
__________________________________________________________________________________________________
swish_55 (Swish)                (None, 1, 1, 40)     0           conv2d_72[0][0]                  
__________________________________________________________________________________________________
conv2d_73 (Conv2D)              (None, 1, 1, 960)    39360       swish_55[0][0]                   
__________________________________________________________________________________________________
activation_18 (Activation)      (None, 1, 1, 960)    0           conv2d_73[0][0]                  
__________________________________________________________________________________________________
multiply_18 (Multiply)          (None, 14, 14, 960)  0           activation_18[0][0]              
                                                                 swish_54[0][0]                   
__________________________________________________________________________________________________
conv2d_74 (Conv2D)              (None, 14, 14, 160)  153600      multiply_18[0][0]                
__________________________________________________________________________________________________
batch_normalization_55 (BatchNo (None, 14, 14, 160)  640         conv2d_74[0][0]                  
__________________________________________________________________________________________________
add_13 (Add)                    (None, 14, 14, 160)  0           batch_normalization_55[0][0]     
                                                                 add_12[0][0]                     
__________________________________________________________________________________________________
conv2d_75 (Conv2D)              (None, 14, 14, 960)  153600      add_13[0][0]                     
__________________________________________________________________________________________________
batch_normalization_56 (BatchNo (None, 14, 14, 960)  3840        conv2d_75[0][0]                  
__________________________________________________________________________________________________
swish_56 (Swish)                (None, 14, 14, 960)  0           batch_normalization_56[0][0]     
__________________________________________________________________________________________________
depthwise_conv2d_19 (DepthwiseC (None, 14, 14, 960)  24000       swish_56[0][0]                   
__________________________________________________________________________________________________
batch_normalization_57 (BatchNo (None, 14, 14, 960)  3840        depthwise_conv2d_19[0][0]        
__________________________________________________________________________________________________
swish_57 (Swish)                (None, 14, 14, 960)  0           batch_normalization_57[0][0]     
__________________________________________________________________________________________________
lambda_19 (Lambda)              (None, 1, 1, 960)    0           swish_57[0][0]                   
__________________________________________________________________________________________________
conv2d_76 (Conv2D)              (None, 1, 1, 40)     38440       lambda_19[0][0]                  
__________________________________________________________________________________________________
swish_58 (Swish)                (None, 1, 1, 40)     0           conv2d_76[0][0]                  
__________________________________________________________________________________________________
conv2d_77 (Conv2D)              (None, 1, 1, 960)    39360       swish_58[0][0]                   
__________________________________________________________________________________________________
activation_19 (Activation)      (None, 1, 1, 960)    0           conv2d_77[0][0]                  
__________________________________________________________________________________________________
multiply_19 (Multiply)          (None, 14, 14, 960)  0           activation_19[0][0]              
                                                                 swish_57[0][0]                   
__________________________________________________________________________________________________
conv2d_78 (Conv2D)              (None, 14, 14, 160)  153600      multiply_19[0][0]                
__________________________________________________________________________________________________
batch_normalization_58 (BatchNo (None, 14, 14, 160)  640         conv2d_78[0][0]                  
__________________________________________________________________________________________________
add_14 (Add)                    (None, 14, 14, 160)  0           batch_normalization_58[0][0]     
                                                                 add_13[0][0]                     
__________________________________________________________________________________________________
conv2d_79 (Conv2D)              (None, 14, 14, 960)  153600      add_14[0][0]                     
__________________________________________________________________________________________________
batch_normalization_59 (BatchNo (None, 14, 14, 960)  3840        conv2d_79[0][0]                  
__________________________________________________________________________________________________
swish_59 (Swish)                (None, 14, 14, 960)  0           batch_normalization_59[0][0]     
__________________________________________________________________________________________________
depthwise_conv2d_20 (DepthwiseC (None, 14, 14, 960)  24000       swish_59[0][0]                   
__________________________________________________________________________________________________
batch_normalization_60 (BatchNo (None, 14, 14, 960)  3840        depthwise_conv2d_20[0][0]        
__________________________________________________________________________________________________
swish_60 (Swish)                (None, 14, 14, 960)  0           batch_normalization_60[0][0]     
__________________________________________________________________________________________________
lambda_20 (Lambda)              (None, 1, 1, 960)    0           swish_60[0][0]                   
__________________________________________________________________________________________________
conv2d_80 (Conv2D)              (None, 1, 1, 40)     38440       lambda_20[0][0]                  
__________________________________________________________________________________________________
swish_61 (Swish)                (None, 1, 1, 40)     0           conv2d_80[0][0]                  
__________________________________________________________________________________________________
conv2d_81 (Conv2D)              (None, 1, 1, 960)    39360       swish_61[0][0]                   
__________________________________________________________________________________________________
activation_20 (Activation)      (None, 1, 1, 960)    0           conv2d_81[0][0]                  
__________________________________________________________________________________________________
multiply_20 (Multiply)          (None, 14, 14, 960)  0           activation_20[0][0]              
                                                                 swish_60[0][0]                   
__________________________________________________________________________________________________
conv2d_82 (Conv2D)              (None, 14, 14, 160)  153600      multiply_20[0][0]                
__________________________________________________________________________________________________
batch_normalization_61 (BatchNo (None, 14, 14, 160)  640         conv2d_82[0][0]                  
__________________________________________________________________________________________________
add_15 (Add)                    (None, 14, 14, 160)  0           batch_normalization_61[0][0]     
                                                                 add_14[0][0]                     
__________________________________________________________________________________________________
conv2d_83 (Conv2D)              (None, 14, 14, 960)  153600      add_15[0][0]                     
__________________________________________________________________________________________________
batch_normalization_62 (BatchNo (None, 14, 14, 960)  3840        conv2d_83[0][0]                  
__________________________________________________________________________________________________
swish_62 (Swish)                (None, 14, 14, 960)  0           batch_normalization_62[0][0]     
__________________________________________________________________________________________________
depthwise_conv2d_21 (DepthwiseC (None, 14, 14, 960)  24000       swish_62[0][0]                   
__________________________________________________________________________________________________
batch_normalization_63 (BatchNo (None, 14, 14, 960)  3840        depthwise_conv2d_21[0][0]        
__________________________________________________________________________________________________
swish_63 (Swish)                (None, 14, 14, 960)  0           batch_normalization_63[0][0]     
__________________________________________________________________________________________________
lambda_21 (Lambda)              (None, 1, 1, 960)    0           swish_63[0][0]                   
__________________________________________________________________________________________________
conv2d_84 (Conv2D)              (None, 1, 1, 40)     38440       lambda_21[0][0]                  
__________________________________________________________________________________________________
swish_64 (Swish)                (None, 1, 1, 40)     0           conv2d_84[0][0]                  
__________________________________________________________________________________________________
conv2d_85 (Conv2D)              (None, 1, 1, 960)    39360       swish_64[0][0]                   
__________________________________________________________________________________________________
activation_21 (Activation)      (None, 1, 1, 960)    0           conv2d_85[0][0]                  
__________________________________________________________________________________________________
multiply_21 (Multiply)          (None, 14, 14, 960)  0           activation_21[0][0]              
                                                                 swish_63[0][0]                   
__________________________________________________________________________________________________
conv2d_86 (Conv2D)              (None, 14, 14, 160)  153600      multiply_21[0][0]                
__________________________________________________________________________________________________
batch_normalization_64 (BatchNo (None, 14, 14, 160)  640         conv2d_86[0][0]                  
__________________________________________________________________________________________________
add_16 (Add)                    (None, 14, 14, 160)  0           batch_normalization_64[0][0]     
                                                                 add_15[0][0]                     
__________________________________________________________________________________________________
conv2d_87 (Conv2D)              (None, 14, 14, 960)  153600      add_16[0][0]                     
__________________________________________________________________________________________________
batch_normalization_65 (BatchNo (None, 14, 14, 960)  3840        conv2d_87[0][0]                  
__________________________________________________________________________________________________
swish_65 (Swish)                (None, 14, 14, 960)  0           batch_normalization_65[0][0]     
__________________________________________________________________________________________________
depthwise_conv2d_22 (DepthwiseC (None, 7, 7, 960)    24000       swish_65[0][0]                   
__________________________________________________________________________________________________
batch_normalization_66 (BatchNo (None, 7, 7, 960)    3840        depthwise_conv2d_22[0][0]        
__________________________________________________________________________________________________
swish_66 (Swish)                (None, 7, 7, 960)    0           batch_normalization_66[0][0]     
__________________________________________________________________________________________________
lambda_22 (Lambda)              (None, 1, 1, 960)    0           swish_66[0][0]                   
__________________________________________________________________________________________________
conv2d_88 (Conv2D)              (None, 1, 1, 40)     38440       lambda_22[0][0]                  
__________________________________________________________________________________________________
swish_67 (Swish)                (None, 1, 1, 40)     0           conv2d_88[0][0]                  
__________________________________________________________________________________________________
conv2d_89 (Conv2D)              (None, 1, 1, 960)    39360       swish_67[0][0]                   
__________________________________________________________________________________________________
activation_22 (Activation)      (None, 1, 1, 960)    0           conv2d_89[0][0]                  
__________________________________________________________________________________________________
multiply_22 (Multiply)          (None, 7, 7, 960)    0           activation_22[0][0]              
                                                                 swish_66[0][0]                   
__________________________________________________________________________________________________
conv2d_90 (Conv2D)              (None, 7, 7, 272)    261120      multiply_22[0][0]                
__________________________________________________________________________________________________
batch_normalization_67 (BatchNo (None, 7, 7, 272)    1088        conv2d_90[0][0]                  
__________________________________________________________________________________________________
conv2d_91 (Conv2D)              (None, 7, 7, 1632)   443904      batch_normalization_67[0][0]     
__________________________________________________________________________________________________
batch_normalization_68 (BatchNo (None, 7, 7, 1632)   6528        conv2d_91[0][0]                  
__________________________________________________________________________________________________
swish_68 (Swish)                (None, 7, 7, 1632)   0           batch_normalization_68[0][0]     
__________________________________________________________________________________________________
depthwise_conv2d_23 (DepthwiseC (None, 7, 7, 1632)   40800       swish_68[0][0]                   
__________________________________________________________________________________________________
batch_normalization_69 (BatchNo (None, 7, 7, 1632)   6528        depthwise_conv2d_23[0][0]        
__________________________________________________________________________________________________
swish_69 (Swish)                (None, 7, 7, 1632)   0           batch_normalization_69[0][0]     
__________________________________________________________________________________________________
lambda_23 (Lambda)              (None, 1, 1, 1632)   0           swish_69[0][0]                   
__________________________________________________________________________________________________
conv2d_92 (Conv2D)              (None, 1, 1, 68)     111044      lambda_23[0][0]                  
__________________________________________________________________________________________________
swish_70 (Swish)                (None, 1, 1, 68)     0           conv2d_92[0][0]                  
__________________________________________________________________________________________________
conv2d_93 (Conv2D)              (None, 1, 1, 1632)   112608      swish_70[0][0]                   
__________________________________________________________________________________________________
activation_23 (Activation)      (None, 1, 1, 1632)   0           conv2d_93[0][0]                  
__________________________________________________________________________________________________
multiply_23 (Multiply)          (None, 7, 7, 1632)   0           activation_23[0][0]              
                                                                 swish_69[0][0]                   
__________________________________________________________________________________________________
conv2d_94 (Conv2D)              (None, 7, 7, 272)    443904      multiply_23[0][0]                
__________________________________________________________________________________________________
batch_normalization_70 (BatchNo (None, 7, 7, 272)    1088        conv2d_94[0][0]                  
__________________________________________________________________________________________________
add_17 (Add)                    (None, 7, 7, 272)    0           batch_normalization_70[0][0]     
                                                                 batch_normalization_67[0][0]     
__________________________________________________________________________________________________
conv2d_95 (Conv2D)              (None, 7, 7, 1632)   443904      add_17[0][0]                     
__________________________________________________________________________________________________
batch_normalization_71 (BatchNo (None, 7, 7, 1632)   6528        conv2d_95[0][0]                  
__________________________________________________________________________________________________
swish_71 (Swish)                (None, 7, 7, 1632)   0           batch_normalization_71[0][0]     
__________________________________________________________________________________________________
depthwise_conv2d_24 (DepthwiseC (None, 7, 7, 1632)   40800       swish_71[0][0]                   
__________________________________________________________________________________________________
batch_normalization_72 (BatchNo (None, 7, 7, 1632)   6528        depthwise_conv2d_24[0][0]        
__________________________________________________________________________________________________
swish_72 (Swish)                (None, 7, 7, 1632)   0           batch_normalization_72[0][0]     
__________________________________________________________________________________________________
lambda_24 (Lambda)              (None, 1, 1, 1632)   0           swish_72[0][0]                   
__________________________________________________________________________________________________
conv2d_96 (Conv2D)              (None, 1, 1, 68)     111044      lambda_24[0][0]                  
__________________________________________________________________________________________________
swish_73 (Swish)                (None, 1, 1, 68)     0           conv2d_96[0][0]                  
__________________________________________________________________________________________________
conv2d_97 (Conv2D)              (None, 1, 1, 1632)   112608      swish_73[0][0]                   
__________________________________________________________________________________________________
activation_24 (Activation)      (None, 1, 1, 1632)   0           conv2d_97[0][0]                  
__________________________________________________________________________________________________
multiply_24 (Multiply)          (None, 7, 7, 1632)   0           activation_24[0][0]              
                                                                 swish_72[0][0]                   
__________________________________________________________________________________________________
conv2d_98 (Conv2D)              (None, 7, 7, 272)    443904      multiply_24[0][0]                
__________________________________________________________________________________________________
batch_normalization_73 (BatchNo (None, 7, 7, 272)    1088        conv2d_98[0][0]                  
__________________________________________________________________________________________________
add_18 (Add)                    (None, 7, 7, 272)    0           batch_normalization_73[0][0]     
                                                                 add_17[0][0]                     
__________________________________________________________________________________________________
conv2d_99 (Conv2D)              (None, 7, 7, 1632)   443904      add_18[0][0]                     
__________________________________________________________________________________________________
batch_normalization_74 (BatchNo (None, 7, 7, 1632)   6528        conv2d_99[0][0]                  
__________________________________________________________________________________________________
swish_74 (Swish)                (None, 7, 7, 1632)   0           batch_normalization_74[0][0]     
__________________________________________________________________________________________________
depthwise_conv2d_25 (DepthwiseC (None, 7, 7, 1632)   40800       swish_74[0][0]                   
__________________________________________________________________________________________________
batch_normalization_75 (BatchNo (None, 7, 7, 1632)   6528        depthwise_conv2d_25[0][0]        
__________________________________________________________________________________________________
swish_75 (Swish)                (None, 7, 7, 1632)   0           batch_normalization_75[0][0]     
__________________________________________________________________________________________________
lambda_25 (Lambda)              (None, 1, 1, 1632)   0           swish_75[0][0]                   
__________________________________________________________________________________________________
conv2d_100 (Conv2D)             (None, 1, 1, 68)     111044      lambda_25[0][0]                  
__________________________________________________________________________________________________
swish_76 (Swish)                (None, 1, 1, 68)     0           conv2d_100[0][0]                 
__________________________________________________________________________________________________
conv2d_101 (Conv2D)             (None, 1, 1, 1632)   112608      swish_76[0][0]                   
__________________________________________________________________________________________________
activation_25 (Activation)      (None, 1, 1, 1632)   0           conv2d_101[0][0]                 
__________________________________________________________________________________________________
multiply_25 (Multiply)          (None, 7, 7, 1632)   0           activation_25[0][0]              
                                                                 swish_75[0][0]                   
__________________________________________________________________________________________________
conv2d_102 (Conv2D)             (None, 7, 7, 272)    443904      multiply_25[0][0]                
__________________________________________________________________________________________________
batch_normalization_76 (BatchNo (None, 7, 7, 272)    1088        conv2d_102[0][0]                 
__________________________________________________________________________________________________
add_19 (Add)                    (None, 7, 7, 272)    0           batch_normalization_76[0][0]     
                                                                 add_18[0][0]                     
__________________________________________________________________________________________________
conv2d_103 (Conv2D)             (None, 7, 7, 1632)   443904      add_19[0][0]                     
__________________________________________________________________________________________________
batch_normalization_77 (BatchNo (None, 7, 7, 1632)   6528        conv2d_103[0][0]                 
__________________________________________________________________________________________________
swish_77 (Swish)                (None, 7, 7, 1632)   0           batch_normalization_77[0][0]     
__________________________________________________________________________________________________
depthwise_conv2d_26 (DepthwiseC (None, 7, 7, 1632)   40800       swish_77[0][0]                   
__________________________________________________________________________________________________
batch_normalization_78 (BatchNo (None, 7, 7, 1632)   6528        depthwise_conv2d_26[0][0]        
__________________________________________________________________________________________________
swish_78 (Swish)                (None, 7, 7, 1632)   0           batch_normalization_78[0][0]     
__________________________________________________________________________________________________
lambda_26 (Lambda)              (None, 1, 1, 1632)   0           swish_78[0][0]                   
__________________________________________________________________________________________________
conv2d_104 (Conv2D)             (None, 1, 1, 68)     111044      lambda_26[0][0]                  
__________________________________________________________________________________________________
swish_79 (Swish)                (None, 1, 1, 68)     0           conv2d_104[0][0]                 
__________________________________________________________________________________________________
conv2d_105 (Conv2D)             (None, 1, 1, 1632)   112608      swish_79[0][0]                   
__________________________________________________________________________________________________
activation_26 (Activation)      (None, 1, 1, 1632)   0           conv2d_105[0][0]                 
__________________________________________________________________________________________________
multiply_26 (Multiply)          (None, 7, 7, 1632)   0           activation_26[0][0]              
                                                                 swish_78[0][0]                   
__________________________________________________________________________________________________
conv2d_106 (Conv2D)             (None, 7, 7, 272)    443904      multiply_26[0][0]                
__________________________________________________________________________________________________
batch_normalization_79 (BatchNo (None, 7, 7, 272)    1088        conv2d_106[0][0]                 
__________________________________________________________________________________________________
add_20 (Add)                    (None, 7, 7, 272)    0           batch_normalization_79[0][0]     
                                                                 add_19[0][0]                     
__________________________________________________________________________________________________
conv2d_107 (Conv2D)             (None, 7, 7, 1632)   443904      add_20[0][0]                     
__________________________________________________________________________________________________
batch_normalization_80 (BatchNo (None, 7, 7, 1632)   6528        conv2d_107[0][0]                 
__________________________________________________________________________________________________
swish_80 (Swish)                (None, 7, 7, 1632)   0           batch_normalization_80[0][0]     
__________________________________________________________________________________________________
depthwise_conv2d_27 (DepthwiseC (None, 7, 7, 1632)   40800       swish_80[0][0]                   
__________________________________________________________________________________________________
batch_normalization_81 (BatchNo (None, 7, 7, 1632)   6528        depthwise_conv2d_27[0][0]        
__________________________________________________________________________________________________
swish_81 (Swish)                (None, 7, 7, 1632)   0           batch_normalization_81[0][0]     
__________________________________________________________________________________________________
lambda_27 (Lambda)              (None, 1, 1, 1632)   0           swish_81[0][0]                   
__________________________________________________________________________________________________
conv2d_108 (Conv2D)             (None, 1, 1, 68)     111044      lambda_27[0][0]                  
__________________________________________________________________________________________________
swish_82 (Swish)                (None, 1, 1, 68)     0           conv2d_108[0][0]                 
__________________________________________________________________________________________________
conv2d_109 (Conv2D)             (None, 1, 1, 1632)   112608      swish_82[0][0]                   
__________________________________________________________________________________________________
activation_27 (Activation)      (None, 1, 1, 1632)   0           conv2d_109[0][0]                 
__________________________________________________________________________________________________
multiply_27 (Multiply)          (None, 7, 7, 1632)   0           activation_27[0][0]              
                                                                 swish_81[0][0]                   
__________________________________________________________________________________________________
conv2d_110 (Conv2D)             (None, 7, 7, 272)    443904      multiply_27[0][0]                
__________________________________________________________________________________________________
batch_normalization_82 (BatchNo (None, 7, 7, 272)    1088        conv2d_110[0][0]                 
__________________________________________________________________________________________________
add_21 (Add)                    (None, 7, 7, 272)    0           batch_normalization_82[0][0]     
                                                                 add_20[0][0]                     
__________________________________________________________________________________________________
conv2d_111 (Conv2D)             (None, 7, 7, 1632)   443904      add_21[0][0]                     
__________________________________________________________________________________________________
batch_normalization_83 (BatchNo (None, 7, 7, 1632)   6528        conv2d_111[0][0]                 
__________________________________________________________________________________________________
swish_83 (Swish)                (None, 7, 7, 1632)   0           batch_normalization_83[0][0]     
__________________________________________________________________________________________________
depthwise_conv2d_28 (DepthwiseC (None, 7, 7, 1632)   40800       swish_83[0][0]                   
__________________________________________________________________________________________________
batch_normalization_84 (BatchNo (None, 7, 7, 1632)   6528        depthwise_conv2d_28[0][0]        
__________________________________________________________________________________________________
swish_84 (Swish)                (None, 7, 7, 1632)   0           batch_normalization_84[0][0]     
__________________________________________________________________________________________________
lambda_28 (Lambda)              (None, 1, 1, 1632)   0           swish_84[0][0]                   
__________________________________________________________________________________________________
conv2d_112 (Conv2D)             (None, 1, 1, 68)     111044      lambda_28[0][0]                  
__________________________________________________________________________________________________
swish_85 (Swish)                (None, 1, 1, 68)     0           conv2d_112[0][0]                 
__________________________________________________________________________________________________
conv2d_113 (Conv2D)             (None, 1, 1, 1632)   112608      swish_85[0][0]                   
__________________________________________________________________________________________________
activation_28 (Activation)      (None, 1, 1, 1632)   0           conv2d_113[0][0]                 
__________________________________________________________________________________________________
multiply_28 (Multiply)          (None, 7, 7, 1632)   0           activation_28[0][0]              
                                                                 swish_84[0][0]                   
__________________________________________________________________________________________________
conv2d_114 (Conv2D)             (None, 7, 7, 272)    443904      multiply_28[0][0]                
__________________________________________________________________________________________________
batch_normalization_85 (BatchNo (None, 7, 7, 272)    1088        conv2d_114[0][0]                 
__________________________________________________________________________________________________
add_22 (Add)                    (None, 7, 7, 272)    0           batch_normalization_85[0][0]     
                                                                 add_21[0][0]                     
__________________________________________________________________________________________________
conv2d_115 (Conv2D)             (None, 7, 7, 1632)   443904      add_22[0][0]                     
__________________________________________________________________________________________________
batch_normalization_86 (BatchNo (None, 7, 7, 1632)   6528        conv2d_115[0][0]                 
__________________________________________________________________________________________________
swish_86 (Swish)                (None, 7, 7, 1632)   0           batch_normalization_86[0][0]     
__________________________________________________________________________________________________
depthwise_conv2d_29 (DepthwiseC (None, 7, 7, 1632)   40800       swish_86[0][0]                   
__________________________________________________________________________________________________
batch_normalization_87 (BatchNo (None, 7, 7, 1632)   6528        depthwise_conv2d_29[0][0]        
__________________________________________________________________________________________________
swish_87 (Swish)                (None, 7, 7, 1632)   0           batch_normalization_87[0][0]     
__________________________________________________________________________________________________
lambda_29 (Lambda)              (None, 1, 1, 1632)   0           swish_87[0][0]                   
__________________________________________________________________________________________________
conv2d_116 (Conv2D)             (None, 1, 1, 68)     111044      lambda_29[0][0]                  
__________________________________________________________________________________________________
swish_88 (Swish)                (None, 1, 1, 68)     0           conv2d_116[0][0]                 
__________________________________________________________________________________________________
conv2d_117 (Conv2D)             (None, 1, 1, 1632)   112608      swish_88[0][0]                   
__________________________________________________________________________________________________
activation_29 (Activation)      (None, 1, 1, 1632)   0           conv2d_117[0][0]                 
__________________________________________________________________________________________________
multiply_29 (Multiply)          (None, 7, 7, 1632)   0           activation_29[0][0]              
                                                                 swish_87[0][0]                   
__________________________________________________________________________________________________
conv2d_118 (Conv2D)             (None, 7, 7, 272)    443904      multiply_29[0][0]                
__________________________________________________________________________________________________
batch_normalization_88 (BatchNo (None, 7, 7, 272)    1088        conv2d_118[0][0]                 
__________________________________________________________________________________________________
add_23 (Add)                    (None, 7, 7, 272)    0           batch_normalization_88[0][0]     
                                                                 add_22[0][0]                     
__________________________________________________________________________________________________
conv2d_119 (Conv2D)             (None, 7, 7, 1632)   443904      add_23[0][0]                     
__________________________________________________________________________________________________
batch_normalization_89 (BatchNo (None, 7, 7, 1632)   6528        conv2d_119[0][0]                 
__________________________________________________________________________________________________
swish_89 (Swish)                (None, 7, 7, 1632)   0           batch_normalization_89[0][0]     
__________________________________________________________________________________________________
depthwise_conv2d_30 (DepthwiseC (None, 7, 7, 1632)   14688       swish_89[0][0]                   
__________________________________________________________________________________________________
batch_normalization_90 (BatchNo (None, 7, 7, 1632)   6528        depthwise_conv2d_30[0][0]        
__________________________________________________________________________________________________
swish_90 (Swish)                (None, 7, 7, 1632)   0           batch_normalization_90[0][0]     
__________________________________________________________________________________________________
lambda_30 (Lambda)              (None, 1, 1, 1632)   0           swish_90[0][0]                   
__________________________________________________________________________________________________
conv2d_120 (Conv2D)             (None, 1, 1, 68)     111044      lambda_30[0][0]                  
__________________________________________________________________________________________________
swish_91 (Swish)                (None, 1, 1, 68)     0           conv2d_120[0][0]                 
__________________________________________________________________________________________________
conv2d_121 (Conv2D)             (None, 1, 1, 1632)   112608      swish_91[0][0]                   
__________________________________________________________________________________________________
activation_30 (Activation)      (None, 1, 1, 1632)   0           conv2d_121[0][0]                 
__________________________________________________________________________________________________
multiply_30 (Multiply)          (None, 7, 7, 1632)   0           activation_30[0][0]              
                                                                 swish_90[0][0]                   
__________________________________________________________________________________________________
conv2d_122 (Conv2D)             (None, 7, 7, 448)    731136      multiply_30[0][0]                
__________________________________________________________________________________________________
batch_normalization_91 (BatchNo (None, 7, 7, 448)    1792        conv2d_122[0][0]                 
__________________________________________________________________________________________________
conv2d_123 (Conv2D)             (None, 7, 7, 2688)   1204224     batch_normalization_91[0][0]     
__________________________________________________________________________________________________
batch_normalization_92 (BatchNo (None, 7, 7, 2688)   10752       conv2d_123[0][0]                 
__________________________________________________________________________________________________
swish_92 (Swish)                (None, 7, 7, 2688)   0           batch_normalization_92[0][0]     
__________________________________________________________________________________________________
depthwise_conv2d_31 (DepthwiseC (None, 7, 7, 2688)   24192       swish_92[0][0]                   
__________________________________________________________________________________________________
batch_normalization_93 (BatchNo (None, 7, 7, 2688)   10752       depthwise_conv2d_31[0][0]        
__________________________________________________________________________________________________
swish_93 (Swish)                (None, 7, 7, 2688)   0           batch_normalization_93[0][0]     
__________________________________________________________________________________________________
lambda_31 (Lambda)              (None, 1, 1, 2688)   0           swish_93[0][0]                   
__________________________________________________________________________________________________
conv2d_124 (Conv2D)             (None, 1, 1, 112)    301168      lambda_31[0][0]                  
__________________________________________________________________________________________________
swish_94 (Swish)                (None, 1, 1, 112)    0           conv2d_124[0][0]                 
__________________________________________________________________________________________________
conv2d_125 (Conv2D)             (None, 1, 1, 2688)   303744      swish_94[0][0]                   
__________________________________________________________________________________________________
activation_31 (Activation)      (None, 1, 1, 2688)   0           conv2d_125[0][0]                 
__________________________________________________________________________________________________
multiply_31 (Multiply)          (None, 7, 7, 2688)   0           activation_31[0][0]              
                                                                 swish_93[0][0]                   
__________________________________________________________________________________________________
conv2d_126 (Conv2D)             (None, 7, 7, 448)    1204224     multiply_31[0][0]                
__________________________________________________________________________________________________
batch_normalization_94 (BatchNo (None, 7, 7, 448)    1792        conv2d_126[0][0]                 
__________________________________________________________________________________________________
add_24 (Add)                    (None, 7, 7, 448)    0           batch_normalization_94[0][0]     
                                                                 batch_normalization_91[0][0]     
__________________________________________________________________________________________________
conv2d_127 (Conv2D)             (None, 7, 7, 1792)   802816      add_24[0][0]                     
__________________________________________________________________________________________________
batch_normalization_95 (BatchNo (None, 7, 7, 1792)   7168        conv2d_127[0][0]                 
__________________________________________________________________________________________________
swish_95 (Swish)                (None, 7, 7, 1792)   0           batch_normalization_95[0][0]     
__________________________________________________________________________________________________
global_average_pooling2d (Globa (None, 1792)         0           swish_95[0][0]                   
__________________________________________________________________________________________________
batch_normalization_96 (BatchNo (None, 1792)         7168        global_average_pooling2d[0][0]   
__________________________________________________________________________________________________
dense (Dense)                   (None, 256)          459008      batch_normalization_96[0][0]     
__________________________________________________________________________________________________
dropout (Dropout)               (None, 256)          0           dense[0][0]                      
__________________________________________________________________________________________________
pred (Dense)                    (None, 1)            257         dropout[0][0]                    
==================================================================================================
Total params: 18,140,249
Trainable params: 18,011,465
Non-trainable params: 128,784
__________________________________________________________________________________________________
Epoch 1/80
  1/312 [..............................] - ETA: 4:48:21 - loss:
…
